assets/model/wandb_model.onnx (onnx, 147556 bytes, 9 tensors)

sequential/dense_1/MatMul/ReadVariableOp:0 f4 [32, 3]
000000 0a 5b af bd 0e b1 98 3d 04 b2 f1 3d 2d 43 ae be
       -0.08562286 0.074556455 0.11801532 -0.34035626
000010 6d 99 cb 3d 4b 8e c9 bd 48 f9 5f be b4 dd 63 3f
       0.09941373 -0.09841593 -0.21872437 0.8901017
000020 79 c3 3f 3c ae 1e 00 3e 91 e5 fa be 62 21 02 be
       0.011704319 0.12511703 -0.4900327 -0.12708047
000030 cf 7e 2a bf 83 a3 40 3d 8e 99 ce 3d ea 20 6c 3e
       -0.66599745 0.047030937 0.10087882 0.2305943
000040 f0 d3 02 3e dd 30 2e bf 70 0e 17 3f 70 a1 c8 bf
       0.1277616 -0.6804331 0.59006405 -1.5674267
000050 d7 47 7a 3e 40 3a 0e bf d9 80 dd bc 47 dd b3 3e
       0.24441467 -0.5555763 -0.027038978 0.3512976
000060 27 7d f5 be a6 78 28 3e 3b 9c ff 3d fc e8 aa 3e
       -0.47947046 0.16452274 0.124809705 0.33380878
000070 98 0b da be f1 8e b8 3e a3 cd 7c bf 6b 20 72 3f
       -0.4258697 0.36046556 -0.98751277 0.94580716
000080 29 4f 1f bf da d2 3e bf 3b 68 ff 3e 34 b1 1d 3e
       -0.62230164 -0.74540484 0.4988421 0.15399629
000090 48 f5 fe 3e 00 ee fb bd cd 1e e0 3e ed 36 b6 be
       0.4979651 -0.12301254 0.437735 -0.3558878
0000a0 db 8e 8f 3e 31 c8 f7 3d 36 5c fb bc d7 cb 2c bf
       0.28038678 0.1209873 -0.030683618 -0.67498535
0000b0 24 32 a7 3e c6 d3 ac be b1 17 5c 3e 62 36 5b 3e
       0.32655442 -0.3375532 0.21493413 0.21407464
0000c0 74 54 cc bf 65 26 eb 3f 20 c0 c8 bf 9d c1 43 be
       -1.5963273 1.8371092 -1.5683632 -0.19116826
0000d0 b5 70 24 3e c3 57 ec bd d3 16 b6 3e d4 81 b8 be
       0.1605862 -0.11540177 0.35564288 -0.3603655
0000e0 a9 c5 16 3e 7d 3c 42 be 93 fb 27 bd 16 f2 11 bd
       0.14723839 -0.18968387 -0.041011404 -0.03563126
0000f0 4b c9 9d 3e a4 33 4f bf c1 0d 89 3e 21 dc 53 be
       0.30817637 -0.8093817 0.26768306 -0.20689441
000100 a1 10 07 bf 13 cd 9b 3e e7 1e 6a 3e a4 9c bd 3e
       -0.5275975 0.30429897 0.22863351 0.3703357
000110 ff fa 47 bf cc a4 7f bf f1 e3 83 3e 20 c2 ac 3e
       -0.78117365 -0.99860835 0.25759843 0.33741856
000120 13 d1 4e bf 3f a9 55 3d 35 71 7a 3e cd 48 8a be
       -0.8078777 0.05216336 0.24457248 -0.27008668
000130 ae 6b aa 3f 65 7d 42 bf 2c 07 57 bf 45 f3 50 3f
       1.3314111 -0.75972587 -0.8399532 0.816212
000140 b1 db 8f bf d5 30 02 bf 23 fb 1f 3f cf 6c 15 bf
       -1.123892 -0.5085576 0.6249258 -0.58369154
000150 12 ff f4 be b7 99 09 3f f1 e1 c8 3d 2e b5 0f 3f
       -0.47850853 0.53750175 0.0980872 0.56135833
000160 35 cc 10 bf ce 52 c5 3e 38 e8 25 bf 7e 98 8e 3f
       -0.56561595 0.38539737 -0.6480746 1.1140287
000170 c9 0d 51 be de ca e4 be db c3 a5 3d a6 9a e4 3d
       -0.20415415 -0.44686025 0.08093997 0.11162309

sequential/dense_1/BiasAdd/ReadVariableOp:0 f4 [3]
000000 aa 95 a6 bd 34 a5 d2 bd 45 e0 11 3e
       -0.08134015 -0.10285416 0.14245708

sequential/dense/MatMul/ReadVariableOp:0 f4 [64, 32]
000000 81 a1 2d bd 98 46 08 3e c8 97 c9 3e e5 2c 0c bf
       -0.04239035 0.1330818 0.39373612 -0.54756004
000010 a1 b8 b1 be c6 33 8f be 39 8b aa be be 1f cf 3e
       -0.34711173 -0.27969187 -0.33309343 0.40453905
000020 80 3f 22 3f d7 39 6d 3e 0b fb b8 be d2 79 d9 3d
       0.63378143 0.23166595 -0.3612903 0.106189385
000030 31 96 cc be c0 fd 7d bc be 36 8d 3d 95 d6 0f 3e
       -0.39958337 -0.015502393 0.06895207 0.140467
000040 e6 a5 30 be bd e2 28 be 76 57 a9 be c9 55 12 bc
       -0.17250785 -0.16492744 -0.3307454 -0.008931586
000050 0c 2a 0f be 15 f7 18 3f 31 b3 23 bf d8 a7 f5 3d
       -0.13980883 0.5975202 -0.639453 0.11994904
000060 82 aa c2 3e 3c b6 67 be 67 30 4f 3e 60 7d fb 3e
       0.38020712 -0.2262811 0.20233308 0.4911909
000070 74 4e 82 3f f3 10 1a be fd 84 05 3f df 98 c9 3e
       1.0180192 -0.15045528 0.5215605 0.39374444
000080 4a bd a1 3d 71 9c c5 bd 4a a9 9a 3d 45 82 5a 3e
       0.07897432 -0.096489795 0.075518206 0.21338756
000090 ec 78 51 ba 04 44 59 3e 36 87 cc 3e 4a 41 a5 be
       -0.0007990736 0.21217352 0.39946908 -0.32276374
0000a0 a1 bd 48 3e 93 97 4b 3e 19 b5 3c be 17 f6 0e bf
       0.19603588 0.1988204 -0.18428458 -0.55844253
0000b0 96 75 7a 3e 05 d9 a6 bc a9 df c2 3e 31 85 27 3e
       0.24458918 -0.020367155 0.38061264 0.16359402
0000c0 85 a5 e5 bd 28 b2 b2 3d 8c f8 2f 3d 52 ee 42 be
       -0.11213211 0.08725387 0.042961642 -0.19036224
0000d0 6f a7 3b 3d 9a fb 32 3e 7f 4d ec 3e 06 72 ec bd
       0.045813974 0.17478791 0.46152875 -0.11545186
0000e0 20 c9 9e be 94 b8 4f be b1 88 61 be e1 3a 56 3d
       -0.3101282 -0.20285255 -0.220248 0.052302245
0000f0 69 8f b1 bd 9c 4e 18 bd 15 d4 92 be 9c eb 51 be
       -0.086699314 -0.037184343 -0.2867743 -0.20500034
000100 5a d5 1b 3d ec 54 d3 3d 19 c7 b1 3d 44 20 d3 bc
       0.038045265 0.10318932 0.08680553 -0.025772221
000110 e4 79 a2 3e 17 6b bb be af 2e 29 be f5 97 be 3e
       0.3173362 -0.3660514 -0.16521715 0.3722531
000120 7d 98 c2 3d aa 0b a5 bc 99 1b 84 3e 70 9e f7 3e
       0.09501741 -0.020147163 0.25802305 0.48363066
000130 a9 43 28 3e 0e 73 1d bd b9 d3 24 be 7d be fd bc
       0.1643206 -0.038439803 -0.16096391 -0.030974621
000140 31 70 ee bc 1d ac 1b bd ab 76 2d 3d 2d 16 3a be
       -0.029106231 -0.038005937 0.0423495 -0.18172522
000150 7f 03 93 3d 54 35 b7 3d b2 20 45 3e 04 fa 2f 3f
       0.07178401 0.089457184 0.19250754 0.6874087
000160 61 86 8f 3e 2b ab 51 3e a3 73 dd 3d 2a 39 b2 3e
       0.2803221 0.20475452 0.108130716 0.34809238
000170 30 55 0f 3f bf 5b bd bd 8d 1b 6d 3d 58 14 d8 3e
       0.5598936 -0.09246015 0.057887603 0.4220302
000180 1f a3 2d 3b a7 aa 8a 3b 41 5a e7 3c 64 39 87 3c
       0.0026494933 0.004231769 0.028241279 0.016506858
000190 72 7d a8 3e 04 b4 7f 3d a2 f9 b6 3e 1e 31 ae be
       0.32908207 0.062427536 0.3573733 -0.34021848
0001a0 69 49 df be 94 0d 05 bf f4 a8 ec be 55 4f 1a bf
       -0.43610695 -0.51973844 -0.4622265 -0.602773
0001b0 df 3c 72 3e 2f 9a bb 3d 0d 77 34 be 9a 94 44 3d
       0.23656033 0.091602676 -0.1762354 0.04799328
0001c0 f0 56 ea be 00 3d 8a 3e f8 c0 39 3e bc 40 26 3d
       -0.45769453 0.26999664 0.18140018 0.04058908
0001d0 ce d5 e4 be 49 d4 71 3e d5 07 c7 be 80 9e 17 3f
       -0.4469437 0.23616137 -0.38873163 0.59226227
0001e0 4e d6 41 bf 62 61 13 bd d4 8c 18 bf a6 41 07 3f
       -0.7571763 -0.035981543 -0.59589887 0.52834547
0001f0 af a3 a6 be da c9 f0 3d 1b 05 8d be 2b 14 7a be
       -0.32546756 0.1175725 -0.27542958 -0.24421756
000200 82 29 9b bd db d8 da bd f9 53 39 3e 81 8d 45 be
       -0.07576276 -0.10685893 0.1809844 -0.1929226
000210 08 1a 79 be 7f 51 d9 3e 54 30 00 be f5 99 b5 be
       -0.24326336 0.4244499 -0.12518436 -0.35469022
000220 57 2c f8 bd 7b 3e a6 3e 3c 2d 9c be a1 0d ca be
       -0.12117832 0.32469544 -0.3050326 -0.39463523
000230 93 f0 dd 3d e2 c8 47 bc 52 69 50 3e 8e fe 17 3e
       0.108369015 -0.01219389 0.20352677 0.14843199
000240 1b fe 9c bd 35 2b a7 3d 91 ca ad 3e fd 6e 2d 3e
       -0.07665654 0.08162538 0.33943608 0.1693687
000250 c1 27 8a 3e db 75 ce 3b d7 a7 c7 3e 80 e0 1f 3e
       0.26983455 0.0063006706 0.3899524 0.15612984
000260 28 ea 99 be 99 ba 8f be 9e 06 05 bf 4f 09 68 3d
       -0.3006146 -0.2807205 -0.5196322 0.056649502
000270 99 be 02 bf 36 07 2a be d9 e9 b1 be cb 14 48 be
       -0.5107208 -0.16604313 -0.34748724 -0.19539182
000280 3d fa 47 bd 87 1d 93 be e9 eb f9 3e 6f ea c5 3e
       -0.04882263 -0.28733465 0.48812798 0.3865542
000290 f3 74 50 be 39 22 f7 3d 86 56 2e bf 2b dc 82 3d
       -0.20357113 0.12067074 -0.68100774 0.0638965
0002a0 8f 33 86 3e 47 2c e9 3e 15 73 36 be 04 a9 e4 3d
       0.2621121 0.45541593 -0.17817338 0.1116505
0002b0 2b bb 3d be 54 33 8e bd 59 fd 86 be 3c aa dd bd
       -0.1852843 -0.06943384 -0.26365164 -0.10823485
0002c0 a1 63 94 3b 53 70 56 3c 52 e1 9a 3e 8f fc 0c be
       0.0045284783 0.013088304 0.3025003 -0.13768218
0002d0 be a7 37 3e b1 b5 8b bb a6 85 37 3c 09 ca ec bd
       0.17935082 -0.0042636027 0.011201298 -0.11561973
0002e0 a5 18 01 3e a3 4c 39 3e f1 f7 0a bf 47 3a 1c 3e
       0.12607057 0.18095641 -0.5428458 0.15256606
0002f0 72 9a 46 3e 6e 1c 17 3d 7c 78 17 bf 9b e2 fd 3d
       0.19394854 0.036892347 -0.5916822 0.12396737
000300 b4 9e b4 3d b2 e0 76 3c b8 77 bb bc 27 4b 7a 3d
       0.08819333 0.01506822 -0.022884235 0.061106827
000310 22 4e a1 bd b0 9b ca 3d ef d8 11 3f a3 f5 4d 3d
       -0.07876231 0.09892976 0.5697164 0.050283086
000320 c1 d9 71 bd da 88 fb be 62 91 97 3d f3 9e a1 bd
       -0.059045557 -0.49127847 0.074007764 -0.07891645
000330 1b 11 07 be 39 86 09 be 9a 67 4a be 1a 24 e1 3d
       -0.13190119 -0.13430108 -0.19766083 0.10993214
000340 3a 3a c5 bc c6 99 0a be 7e 60 b3 3d 37 b1 a5 be
       -0.024075616 -0.13535222 0.08758639 -0.32361767
000350 85 2e 0e bf a8 6c 3e 3f 91 65 2b 3f f2 6a de be
       -0.55539733 0.74384546 0.66951853 -0.43440968
000360 8b 7a 5a bc 6c e2 0e bf 73 a1 9d be b3 f3 25 bf
       -0.013334881 -0.5581424 -0.30787238 -0.6482498
000370 0e 32 cd be 45 31 8f 3e 34 8d 93 3e 57 98 70 be
       -0.4007725 0.27967277 0.28818667 -0.23495613
000380 65 4c a5 3d 7b b9 07 3e c5 e6 7d 3e f8 3a c5 3e
       0.08071212 0.13254349 0.24795063 0.38521552
000390 51 33 5d 3e 7e d0 b9 be 80 0a 98 3e 3d 20 21 3e
       0.21601607 -0.3629188 0.2969551 0.15734954
0003a0 e2 1a 7a be 48 84 22 3e e9 a3 46 be 3a 74 5a bf
       -0.24424317 0.15870774 -0.19398464 -0.853336
0003b0 b1 ac 8f 3e fd 68 35 3d 51 05 8d be e3 e3 58 bd
       0.2806144 0.044289578 -0.2754312 -0.052951705
0003c0 e9 98 90 bd 04 ec 85 3d 67 02 04 bd c8 5b 27 bd
       -0.07060415 0.06539157 -0.032228854 -0.040859014
0003d0 5a e7 d1 bd 96 c8 24 3e ec 84 38 3d d2 5e 7d 3e
       -0.10249205 0.16092142 0.04504864 0.24743202
0003e0 c0 ab a5 be 35 3a bb 3e b5 a2 84 be 97 d6 0a 3e
       -0.32357597 0.36567846 -0.25905386 0.13558422
0003f0 13 81 bd be ab ca ad bd 6b a7 9a 3c 1c dd 80 bc
       -0.37012538 -0.084859215 0.01887866 -0.015730433

sequential/dense/BiasAdd/ReadVariableOp:0 f4 [32]
000000 9e e6 42 be 84 8c 1c be 1a 64 a3 3b 51 d1 0f 3e
       -0.19033286 -0.15287977 0.0049862983 0.14044692
000010 aa 26 99 bc 68 47 73 3d 0e d1 ae be 3c 61 1a 3e
       -0.018695194 0.05939427 -0.3414387 0.15076154
000020 bb b6 0d 3e 33 af 29 3e dc d5 e4 bd 4e a8 4f 3e
       0.13839237 0.1657074 -0.11173603 0.20279047
000030 78 fd 7e 3c fb a5 0f be d4 1e ef bd f4 3d c5 bd
       0.015563361 -0.1402816 -0.11675802 -0.09630957
000040 5b d3 c1 bd fe 7a 8b bd 83 0b c6 3d 43 f0 76 be
       -0.09464141 -0.06810568 0.096701644 -0.2411509
000050 c4 33 60 3e 87 5f a1 bc 8c 9f 4b bb 93 61 d4 3c
       0.21894747 -0.019698871 -0.003107044 0.025925433
000060 99 b9 2a 3c 52 a0 64 bd 67 87 d3 bc 98 4e 07 be
       0.0104202265 -0.055816956 -0.0258214 -0.13213575
000070 5f ed af 3d 3d 74 3c 3e 17 77 b8 bd 40 e7 22 3d
       0.08590197 0.18403716 -0.090070896 0.03977132

sequential/conv1d/Conv1D/ExpandDims_1:0 f4 [64, 1, 1, 2]
000000 27 38 15 3f bd 3f 4a bc d1 cc fc be d8 d9 c8 be
       0.58288807 -0.012344298 -0.49375013 -0.39228702
000010 2e 6e 8d 3e 74 f2 10 3e 10 c5 b3 3d ea f8 e1 be
       0.27623123 0.14154989 0.08777821 -0.4413522
000020 0a af ba be 2e 3b b3 bf 29 21 ff 3c 87 45 8b bf
       -0.3646167 -1.4002435 0.031143742 -1.0880593
000030 bd 9a 48 3e 03 fd 7a 3f 47 30 8a bf a7 97 9a be
       0.19590278 0.98042315 -1.0795983 -0.30193827
000040 ec 49 24 3f d3 a0 f7 3e 56 d0 4e 3f 33 7d d7 bb
       0.64175296 0.48364887 0.80786645 -0.006576204
000050 0b 88 12 bf 19 4c 78 3f 48 5d 35 3e 02 f8 fd 3e
       -0.57238835 0.96991116 0.17711365 0.49603277
000060 80 5c 87 3e f8 e1 57 3d 91 94 5c 3f 86 2c 21 3f
       0.2643776 0.052705735 0.86164194 0.6295856
000070 d1 61 ab be 13 2e a0 bf 74 f7 02 bf 0e 51 ea be
       -0.33473065 -1.2514061 -0.51158834 -0.45764965
000080 3a 88 2a bf c4 d4 1b bf 61 55 39 bf 7d 09 1a bf
       -0.66614115 -0.6087153 -0.723959 -0.6017073
000090 cc 83 81 bf 43 2e 9f bc 1d 78 a9 3d 6a 66 1f 3f
       -1.0118346 -0.019431239 0.08274863 0.62265646
0000a0 ce 01 e8 3d cf 4d 9c bf 06 75 9e bf 7f 02 0c 3f
       0.11328469 -1.2211245 -1.2379463 0.5469131
0000b0 12 06 c7 3e 3b 67 17 bf 14 10 3a bf 32 32 85 bf
       0.3887182 -0.5914189 -0.72680783 -1.0405943
0000c0 19 4f 1a 3f a6 fa b3 bf a6 ec d8 3e bd 7a 26 3f
       0.60276943 -1.4060867 0.42368048 0.65031034
0000d0 b7 e6 d7 be 6a 82 0d bf cd 3c de 3e b2 10 08 3f
       -0.4216821 -0.5527712 0.43405762 0.53150475
0000e0 71 dd 95 3f cd 71 41 be 83 e4 b6 3d 9f 42 f3 be
       1.1708204 -0.18891068 0.08930304 -0.47511765
0000f0 ed 86 23 3d c2 bc 90 bf 26 77 0e bf e5 d8 9e be
       0.039923597 -1.1307604 -0.55650556 -0.31024852
000100 35 2f b3 be 5b 2f b0 bf af b7 03 bf fc 18 c2 be
       -0.34996954 -1.3764452 -0.51452154 -0.37909687
000110 9f 01 80 3f c4 9e b2 3e b5 8d a0 3e ac 8d f0 be
       1.0000495 0.34886754 0.31358114 -0.46983087
000120 e4 af 3d bf b0 83 78 bf 6d 7d 42 bf 88 28 88 bf
       -0.7409651 -0.9707594 -0.75972635 -1.0637369
000130 84 37 bd 3e 10 d5 0f bf f9 0b da 3e 98 42 83 3e
       0.36956418 -0.5618448 0.4258726 0.25636744
000140 24 73 ad 3f e1 85 26 bf d0 0f e0 bd 04 92 67 3f
       1.3550763 -0.65048033 -0.10940516 0.9045718
000150 25 6f dc 3e fd 1f 2e 3f ff f8 1a 3f a8 a0 02 bf
       0.43053547 0.6801756 0.6053619 -0.5102639
000160 ea 88 27 3f f9 3a 0d bf a6 0c d6 be 47 fd 1b be
       0.6544329 -0.5516811 -0.41806525 -0.15233336
000170 db 7e d9 3e b0 36 ac bc 90 cf 01 3f 67 b0 c6 3e
       0.42479596 -0.02102217 0.5070734 0.3880646
000180 68 8f a1 3e f3 3f 38 3e 16 90 3a 3e 20 9e 75 3f
       0.31554723 0.17993145 0.18219027 0.95944405
000190 16 d6 b4 be 3c 14 b2 bf 19 75 c1 3e 16 53 02 3f
       -0.35319585 -1.3912425 0.3778465 0.5090803
0001a0 fa 70 dd 3e 25 ac 0a 3f 58 57 95 bf fe bd ec bb
       0.43250257 0.5416892 -1.166728 -0.0072247973
0001b0 45 19 b0 be ba 93 94 bf 8b 07 51 3f 14 52 25 3f
       -0.3439428 -1.1607583 0.81652135 0.64578366
0001c0 e7 cf b6 be d9 7f b4 bf 3d 22 04 bf 51 e9 64 3f
       -0.35705492 -1.4101516 -0.51614743 0.8941851
0001d0 e5 22 91 bf 26 f2 5c be 45 9e 47 bf ce 8d 6e 3f
       -1.1338774 -0.21576747 -0.77975875 0.93185127
0001e0 e5 bc 62 3f f4 b2 23 3f 0b e3 2c bb 28 aa c4 3b
       0.8856948 0.63944936 -0.0026380445 0.0060017295
0001f0 7f 65 1b 3f 02 37 2a bf 1a 85 aa 3e 86 c5 94 3e
       0.60701746 -0.66490185 0.33304673 0.29056948

const_fold_opt__99 f4 [1, 64, 1]
000000 09 04 2b 3b e7 a4 a8 bc 96 bb 08 be fb 43 f0 bd
       0.0026094934 -0.020586444 -0.13352808 -0.11731716
000010 51 7c 8c bd fb d1 ba bd c0 dc 25 3d 93 62 21 be
       -0.06859649 -0.09122082 0.040493727 -0.1576026
000020 fc 82 71 bd e1 79 0a 3b 69 ed b7 bc e9 ee a2 bd
       -0.058962807 0.0021129774 -0.022452073 -0.07955725
000030 5b 9c 03 be 11 4b 9a bd 45 14 85 bd f3 88 87 bd
       -0.12852614 -0.07533849 -0.06498007 -0.06617918
000040 62 65 b8 3c 68 03 6e bc db 63 5f bc f2 60 32 bc
       0.02250928 -0.014527179 -0.013634647 -0.010887371
000050 6f be 3b bc f5 f5 ab bd 25 c4 51 3d 53 49 80 bd
       -0.011458977 -0.08396522 0.05121245 -0.062639855
000060 af ac e5 bb 2f 10 bd bd 90 fa ea bd 54 a5 a3 bd
       -0.007009111 -0.092316024 -0.11473572 -0.07990518
000070 3e 7d 09 bd ed 34 26 bd 38 1d c5 bd 12 36 e2 bc
       -0.033566706 -0.040577818 -0.09624714 -0.027613673
000080 33 7a 79 bd fc 17 9f bc 74 a5 76 bd 00 12 16 3d
       -0.060907554 -0.019420616 -0.060216382 0.03663826
000090 3c a2 9b bd fc 29 87 bd ba 8e 10 3d 23 47 ec bd
       -0.07599303 -0.06599805 0.035292365 -0.11537006
0000a0 47 c3 b3 3d fe 71 9d 3b 0f 5e c5 bd cb 3b 14 be
       0.087774806 0.0048048487 -0.09637081 -0.14475934
0000b0 5b a8 e3 3d fc 8f 19 be d9 5e 62 bc 87 46 a8 bd
       0.11116096 -0.14996332 -0.013816559 -0.08216577
0000c0 00 d2 c0 bd af 5a 1a 3d 06 92 7d bd 7b 7c b0 bd
       -0.09415054 0.03768414 -0.061906837 -0.08617493
0000d0 8b c1 b5 bd 18 f9 79 bd eb 44 7f bc 17 a3 98 bd
       -0.08874806 -0.06102857 -0.015580396 -0.07452982
0000e0 f2 d5 7e bd 21 c3 a2 bc 0c 82 91 bd ea 1b 47 bd
       -0.062215753 -0.019868435 -0.071048826 -0.048610605
0000f0 f9 d3 97 bd eb d7 44 bc a4 0e 1f be 19 30 f4 bd
       -0.074134775 -0.0120143695 -0.15532929 -0.119232364

W0__27 f4 [1, 256, 64]
000000 de 37 99 be 84 4d 36 be 8a a7 74 bd f8 61 81 3e
       -0.29925436 -0.17803007 -0.05973009 0.25270057
000010 da 12 ea bd e3 3b 08 3e c2 4c 13 3f ff ff 19 3f
       -0.11429377 0.13304095 0.57539 0.60156244
000020 19 75 e5 be 5d 5a c2 be 9e 18 c8 3f 68 d5 da 3e
       -0.448159 -0.37959567 1.5632513 0.4274094
000030 56 25 84 be da 19 e3 bf 6e d5 84 bd 05 98 22 3d
       -0.25809735 -1.7742264 -0.06486021 0.03969576
000040 f4 5c f1 be ab 9c cb be c6 90 b8 3e 86 51 2a 3f
       -0.4714123 -0.39767966 0.36047953 0.66530645
000050 bc 5d b3 3e 32 f0 22 3f b3 45 fd 3d 87 7f 8e 3d
       0.3503245 0.6364776 0.1236681 0.06957918
000060 3a c3 92 3e 61 d2 75 bd 2d d0 2d 3e 63 dc db be
       0.2866457 -0.060015086 0.16973944 -0.4294158
000070 f6 1d 83 be 18 01 7d 3e 37 23 72 bc 97 25 37 be
       -0.25608796 0.24707448 -0.014778904 -0.17885433
000080 04 fe 54 3d 86 09 99 be 07 dc cb be 19 4c 5e 3d
       0.05200006 -0.29890078 -0.39816305 0.05427179
000090 a7 e6 85 bd a0 bf 6c 3e d6 7e 1d 3c 22 33 9f be
       -0.06538134 0.23119974 0.00961276 -0.310937
0000a0 3e 3d cf bb 27 5a 12 40 5e 6b 9d bd 54 59 0d bf
       -0.0063244393 2.2867525 -0.07686494 -0.5521443
0000b0 b9 46 23 be 48 94 8c 3e 16 86 91 be 1b 72 4d be
       -0.15944947 0.2745688 -0.28422612 -0.20063059
0000c0 e5 22 ae be e3 63 41 3f e8 c9 e5 bc f4 e2 b7 3d
       -0.34010997 0.7554304 -0.028050378 0.08978835
0000d0 e4 8e 4d be 1c 86 c2 3e 1b e1 3c 3d 83 d3 d3 bf
       -0.2007404 0.37992942 0.046113115 -1.6548923
0000e0 1e a8 94 3d 1b 36 c6 3f db e7 95 3e 42 13 8f 3f
       0.07258628 1.5485262 0.29278454 1.1177752
0000f0 49 ff dd bf 3b 76 a8 3c 00 f5 c2 be 78 dc 0c 3e
       -1.7343532 0.02056419 -0.38077545 0.13755977
000100 d8 32 9e 3e e0 55 80 3d 72 65 85 3d 67 e7 55 bd
       0.30898166 0.06266379 0.0651349 -0.052222636
000110 e2 90 0a bf 6b cf ad bf c1 1d 85 3f 32 b2 0b 3e
       -0.54127324 -1.3578924 1.0399705 0.13642195
000120 0a 8a b6 3f 62 32 6c 3e ba 2b a2 3e d5 c9 a4 3f
       1.4260876 0.23066095 0.31673986 1.2874094
000130 99 38 91 3e 6e 97 c6 be 8e 25 47 bf 4a e1 11 3e
       0.28363493 -0.38787407 -0.7779168 0.14246097
000140 47 e4 be 3e b6 b9 8a 3e 1b f5 f1 3e 09 a5 c4 3f
       0.37283537 0.2709481 0.47257313 1.5362865
000150 63 30 90 be 63 bb 6f bd ae 98 cc bd 80 45 60 be
       -0.28161916 -0.058528315 -0.09990059 -0.21901512
000160 55 ac ac be 12 43 0c 3f bc 61 03 3f 41 e0 6b 3f
       -0.3372523 0.5478984 0.51321006 0.9213906
000170 08 04 96 bd 72 ab 53 be 22 f3 70 bf 1e e8 e9 3d
       -0.07324988 -0.2067087 -0.9412099 0.11421226
000180 1b 1c 2c bf 69 3f f4 3d 26 aa 06 3e 41 95 6e 3c
       -0.67230386 0.11926157 0.13150844 0.014561952
000190 0c fd 36 bf 35 cb 4b be ca 0e 56 bc 4f 4e 2c 3f
       -0.7147987 -0.19901736 -0.013065049 0.6730699
0001a0 03 ee 29 be dd 00 65 3e d3 34 0c 3f db 88 88 bf
       -0.165947 0.2236361 0.54768103 -1.0666765
0001b0 6e db 3c bd 55 43 91 3e 78 1d f4 bc ad e7 e0 3f
       -0.046107702 0.28371683 -0.029799208 1.7570702
0001c0 af d6 35 3f e1 f4 78 3f 9a 0c 1d bf b3 6d a6 3f
       0.71030706 0.97248656 -0.61347353 1.3002228
0001d0 d9 49 56 3f 62 83 a6 3e fa 3d 92 bc 02 cb 26 be
       0.8370643 0.32522112 -0.017851818 -0.16288379
0001e0 54 dd 47 bf 4c 3b fc 3e d3 18 32 3e c0 aa 9f 3e
       -0.78072095 0.4926399 0.17392282 0.3118496
0001f0 5f ce 0f be a4 1a 15 bd 36 9e 86 bf 09 d1 c8 3f
       -0.14043568 -0.03640236 -1.0517032 1.5688792
000200 3e db a5 bd 8f 3c f7 be 3a d9 15 be 67 7b b7 3d
       -0.08098458 -0.4828839 -0.14633647 0.08959084
000210 8e 03 16 bf db 39 94 bf ca e3 02 bf 17 f3 c2 3e
       -0.58599174 -1.1580156 -0.5112883 0.38076088
000220 26 22 08 bc f2 90 a9 bd 67 d8 76 bf 14 3d 5a be
       -0.008308923 -0.08279599 -0.96423954 -0.21312362
000230 af e6 41 be 7c b6 7b be f0 d0 fc be f5 02 25 be
       -0.18935655 -0.24581331 -0.49378157 -0.1611441
000240 21 2a b7 be e6 79 4e be d7 1f 2b bf 16 e2 de be
       -0.3577433 -0.20163688 -0.6684546 -0.43531865
000250 a0 ca 63 be b6 1a 18 c0 9d 1e 7d 3c 7a f9 31 bf
       -0.22245264 -2.3766303 0.015449193 -0.69521296
000260 b4 dc fc bd 0b d4 cc bf fd 63 b1 be 28 a3 1e bf
       -0.12346783 -1.600221 -0.34646598 -0.61967707
000270 15 90 2e be 4a 47 d5 be ba 74 38 bf 6a f2 e0 be
       -0.1704715 -0.41655952 -0.7205311 -0.43934947
000280 b0 95 11 bf 72 e8 ff be 5a 36 12 be bd 69 5b be
       -0.5686903 -0.4998203 -0.14278546 -0.21427055
000290 4b 76 de be 51 f3 3c bf 80 8a 6e 3b af 30 11 3e
       -0.43449625 -0.7380877 0.003639847 0.14178728
0002a0 6b 8a 97 be 4c 2b 5a bf 7e ff be bf b8 3e 27 be
       -0.29597792 -0.85222316 -1.492172 -0.16332519
0002b0 71 5d a5 bd 79 67 e9 be d3 3a 41 bd 44 d8 a3 bd
       -0.08074463 -0.45586756 -0.04717524 -0.08000234
0002c0 fc 7d cd 3d b4 48 2d bf ea c6 36 bf 02 a4 49 bf
       0.10033795 -0.6768906 -0.7139727 -0.7876588
0002d0 21 e7 89 bf f6 16 96 bf 18 dc 12 be fa 31 ba bd
       -1.077366 -1.1725757 -0.14341772 -0.090915635
0002e0 ce 76 42 bf f0 85 89 bf 88 40 a0 bf b6 27 a3 bf
       -0.7596253 -1.0744 -1.2519693 -1.2746494
0002f0 9d 85 11 be 65 c2 2a 3e d4 79 7b bd 65 71 17 be
       -0.14211126 0.16675718 -0.06139548 -0.1478935
000300 1a 1e 4e 3e c7 e5 ae 3e 29 bc b6 3e 07 90 83 3e
       0.2012867 0.3415968 0.3569043 0.25695822
000310 d0 e5 99 be a4 59 a6 be c1 1e d2 3e 3c 2a d7 3f
       -0.30058146 -0.32490265 0.41039088 1.6809764
000320 5b 02 c6 3f 1d bf 7c 3e 41 ff 93 3e 61 c1 21 3f
       1.5469469 0.24682279 0.2890568 0.631857
000330 69 35 de 3e 15 d2 65 3f 1c 9a 90 be 7c 28 43 3f
       0.43400124 0.89773685 -0.28242576 0.7623365
000340 7e 64 8f 3e 6c ab 9f 3e b1 8a 73 3e 8d 2d be 3e
       0.28006357 0.31185472 0.23783375 0.37144127
000350 da 99 7a 3e fa b7 a1 3e 20 29 93 3e 63 32 cf 3e
       0.24472752 0.31585675 0.28742313 0.4046813
000360 03 4c 16 3f e2 5a ef 3f 8a 3d 12 3f 48 3c f8 3f
       0.58709735 1.869961 0.5712515 1.9393396
000370 29 7c 63 3e bb 88 ae 3e 6c 0c f2 bd 59 44 04 3f
       0.22215332 0.34088692 -0.118187755 0.5166679
000380 ee 1c 8a be 4b 11 da 3e bd b6 82 3f 5a 10 39 3e
       -0.26975197 0.42591318 1.0212017 0.18072644
000390 3b 27 7e be 49 d3 b8 3e 03 a5 cc 3d 31 15 82 3f
       -0.24819653 0.36098698 0.09992411 1.0162717
0003a0 52 35 fa 3e c4 ed ce 3e d1 bc e9 3f 4d 1a 5b 3f
       0.48868805 0.40415776 1.8260747 0.85587007
0003b0 c6 38 c4 bd db a5 86 3f c9 89 bd 3e fd 37 c4 3f
       -0.09581141 1.0519365 0.37019184 1.5329586
0003c0 0d af 20 3f 6e cc 04 3f 88 b2 ac be 72 eb aa 3f
       0.62767106 0.51874435 -0.3372996 1.3353102
0003d0 12 91 e2 3f 80 51 b4 3f a8 7d 4f 3e 99 77 92 3f
       1.7700522 1.4087372 0.20262778 1.1442748
0003e0 b8 2f 3b be cb eb 46 3e 65 a9 ab 3f 61 62 8c 3c
       -0.18279922 0.19425885 1.341107 0.017136754
0003f0 3a c2 92 3f 8f f1 0d 3e 85 83 02 3f 4a a3 5b 3f
       1.1465523 0.13861679 0.5098193 0.85796034

R0__28 f4 [1, 256, 64]
000000 91 bc 64 3e 14 d7 e4 3e c1 3f 69 bf f5 a3 ec bf
       0.22337557 0.44695342 -0.91112906 -1.8487536
000010 c8 65 2b 3e 77 8d 6e 3e 7a d9 98 bf 8b 0f 13 3e
       0.16738045 0.23296152 -1.1941369 0.14361398
000020 2d a6 6b bf 7b 30 38 bf 6d de 22 3f b3 bd cf 3f
       -0.9205044 -0.71948975 0.63620645 1.6229767
000030 3e 2f 82 be fe b9 38 3e 0f 98 3c 3c 6b d2 fa be
       -0.25426668 0.180397 0.011510863 -0.4898866
000040 55 70 0d 3f f4 3a 22 be 15 13 5a 3f 43 e7 37 3e
       0.5524953 -0.15842801 0.85185367 0.17959313
000050 e2 93 66 bc 87 1e 33 3f b3 43 cc bd 98 6b b9 be
       -0.014073344 0.69968456 -0.0997385 -0.362149
000060 10 03 bb bf da 34 c2 be a8 61 39 3d 9c d5 c4 3f
       -1.461031 -0.37930948 0.045259148 1.5377688
000070 d1 cd 12 bf 84 83 50 bf 03 00 aa be c6 84 9b 3e
       -0.573453 -0.81450677 -0.33203134 0.30374736
000080 13 d2 fa bc 60 0d 4b 3f cf f9 3a 3f 9a 17 8c bf
       -0.03061775 0.79317284 0.7303743 -1.0944703
000090 6e 76 d0 bf 9b 6a 33 3f 34 08 94 bf ae 93 7b 3e
       -1.6286142 0.7008454 -1.1565003 0.24568054
0000a0 76 f4 47 3f 66 66 1f be 75 e2 37 3e d9 f7 b7 3f
       0.7810739 -0.15566406 0.1795748 1.4372512
0000b0 c7 0a fe 3e 00 15 93 3e f9 44 bd 3f e2 2c b2 bc
       0.49617597 0.2872696 1.4786674 -0.021749917
0000c0 94 0c d0 3d 03 28 66 3f 0c 29 29 be bf c3 0c bf
       0.10158649 0.89904803 -0.16519564 -0.54986185
0000d0 0d 3f 72 bf 59 a6 1d bf 2b f7 f6 3c b8 f9 0f 3f
       -0.9462746 -0.6158195 0.030147156 0.56240416
0000e0 b3 7c 8a 3e ab 07 41 bd 2f dd 82 3f d6 2b 9a be
       0.27048263 -0.047126453 1.022375 -0.3011157
0000f0 c9 40 d4 bd e0 1b c6 3a 73 15 97 3e ea 6a bc 3e
       -0.10363919 0.0015114509 0.29508552 0.3680032
000100 68 13 5f 3e 58 bd 06 bf 4a 32 ce 3e 18 66 c7 bc
       0.21784747 -0.52632666 0.40272743 -0.024340674
000110 36 fc e1 be 2c 75 13 be a2 fe 92 3e 34 c1 08 bf
       -0.44137734 -0.14400166 0.28709894 -0.53419805
000120 87 6d 87 3d 24 5b e3 bd 6c 07 c7 be d6 86 f7 be
       0.066126876 -0.11101368 -0.3887285 -0.4834506
000130 5c 61 ef 3d 45 64 07 3e 88 e5 10 be ea 4f 8c be
       0.11688492 0.13221844 -0.14150059 -0.2740472
000140 97 a5 25 be 76 53 1d be 6b 2d 67 3e 26 5a aa 3d
       -0.16176449 -0.15363869 0.2257592 0.08317976
000150 62 c1 41 3e fc c5 2d 3d bf 65 2b bd f3 da bd bd
       0.18921426 0.04242514 -0.04184508 -0.09270277
000160 63 05 9e 3d d7 30 0e 3f ca 2c 1d bd 39 18 43 be
       0.07715871 0.55543274 -0.038372792 -0.19052209
000170 42 e4 e4 be 76 d9 92 3b ad 4d e9 3d 15 21 8e 3d
       -0.44705397 0.00448149 0.113917686 0.06939904
000180 af a5 bd 3d 55 d0 96 be ec 1a 44 be 98 a4 16 be
       0.09260117 -0.2945582 -0.19150895 -0.14711225
000190 50 1c 3b bc b8 f2 0b bf 1a 10 d7 3e 2c 0a a6 3e
       -0.011420324 -0.54667234 0.42004472 0.32429636
0001a0 57 17 69 3d 84 2a 9d bd a4 19 3b be a4 d6 22 bf
       0.056907024 -0.07674125 -0.182715 -0.63608766
0001b0 3c 34 99 bd 38 96 84 3d f5 34 1c 3e 29 4e 8f 3e
       -0.07480666 0.064739645 0.15254577 0.2798932
0001c0 81 df d3 be 9f de e4 bd 56 f6 8a be 1b 91 9f 3e
       -0.41381457 -0.11175274 -0.27141064 0.31165394
0001d0 c2 9a fc b9 aa 74 56 bd 96 c5 bd 3d ae bd dc be
       -0.0004818049 -0.052357353 0.09266202 -0.43113464
0001e0 74 69 09 3f 51 69 99 bd f8 95 3c 3e a7 2d 58 3d
       0.53676534 -0.07490791 0.18416584 0.052777912
0001f0 17 b6 81 3d 63 dc 05 3e 28 79 b6 3d de 97 9a 3d
       0.06333559 0.13072352 0.089098275 0.075484976
000200 97 87 64 3e 57 88 82 be 78 ce 1b 3f 2b 7c d9 be
       0.22317348 -0.25494644 0.6086192 -0.42477545
000210 b3 06 94 be 3c 7f 8b be 93 42 7a 3e a3 38 90 be
       -0.2891136 -0.2724551 0.24439459 -0.2816821
000220 52 99 b9 bd 2e 96 44 be 75 1d 02 bf 4d 82 4e be
       -0.09062447 -0.19197914 -0.508262 -0.20166893
000230 f7 d9 03 3f 19 91 28 bf c9 c2 ba bc a7 f7 df be
       0.5150446 -0.658464 -0.022797959 -0.4374363
000240 fe 0c 4b be d5 44 a0 be 43 df 65 3d c4 2b 07 3e
       -0.19829175 -0.31302515 0.056121122 0.13200289
000250 16 85 a4 bd 17 1d e4 3e 2e 96 3f 3f 59 ad 4b 3e
       -0.08033197 0.44553444 0.7483853 0.19890346
000260 2b a3 00 be a9 5f bb 3e e8 08 85 3d 08 47 c5 bd
       -0.12562244 0.3659642 0.06495839 -0.09632689
000270 54 44 65 be 50 ef ea bd 1a a2 2a 3c 71 d3 97 3e
       -0.22389346 -0.114714265 0.010414625 0.29653504
000280 72 6e f3 be 27 48 a7 bd 38 70 53 be b5 41 99 bf
       -0.475452 -0.08168059 -0.20648277 -1.1973177
000290 55 8e b3 be b4 1d 1b bf c8 9b 98 3e c2 54 f7 3d
       -0.35069528 -0.605922 0.29806352 0.12076713
0002a0 25 af 67 3e 13 77 16 bc b1 5e a7 3e 7d ed 85 be
       0.22625406 -0.009183663 0.3268943 -0.26157752
0002b0 e9 6d d4 be 59 fc 83 be 1d 6b bf 3c 28 5a 15 3e
       -0.41490105 -0.25778463 0.023366505 0.14585173
0002c0 38 ff fc be 42 a4 78 be e7 dc 98 be 06 22 85 3e
       -0.49413466 -0.2428141 -0.29856035 0.2600252
0002d0 92 7b 13 bf 06 91 5f bd 6c 88 6d be 7f 63 64 3e
       -0.5761043 -0.054581665 -0.23196572 0.2230358
0002e0 44 54 d9 3d 4c bc 10 bd 23 bb 01 bf 0c 1b 53 be
       0.106117755 -0.035335824 -0.5067617 -0.20615786
0002f0 bd b2 ba be fd fc a8 3e 3b 17 f1 3e 4c 88 86 3e
       -0.3646449 0.33005515 0.47088036 0.2627586
000300 1a be 37 be 24 64 48 3f c6 a7 76 bf 04 e2 d2 3e
       -0.17943612 0.782778 -0.9634975 0.4118806
000310 3e 2b 52 3f e4 48 c7 3e 58 9f 99 bf 99 dc 42 3f
       0.8209723 0.389228 -1.2001753 0.76117855
000320 9a 01 47 bf 6a 70 d4 3e 34 50 20 3e 7d 76 f1 be
       -0.7773682 0.41492015 0.15655595 -0.47160712
000330 db 4d b4 bf e3 50 63 be 0a cb 75 3f e8 c5 26 3f
       -1.408626 -0.22198825 0.9601294 0.6514573
000340 e5 bb 4e 3f 3b b6 e5 3a af 60 4d bf 3e f1 04 bf
       0.80755454 0.0017525622 -0.8022565 -0.51930606
000350 8d b9 49 3f 84 5b 4e bf 66 fa 34 bf 88 45 36 bf
       0.78798753 -0.8060839 -0.7069458 -0.71199846
000360 20 5d 4a 3f e3 a3 06 bf 1f 88 a8 bf de e2 c5 be
       0.7904835 -0.5259382 -1.3166541 -0.38649648
000370 0f 45 98 3f ed 15 b4 be f9 59 64 3f 49 27 de be
       1.1896075 -0.35172978 0.8919979 -0.43389347
000380 69 2e 28 3f 8a a8 0c 3f 16 1e 94 3f c7 dd bc 3e
       0.65695816 0.5494467 1.1571681 0.36887953
000390 d4 03 13 3e bf a2 99 3f d2 ac df 3e f2 fa c8 be
       0.14356929 1.2002791 0.4368654 -0.39253956
0003a0 06 48 66 bf 30 e5 0d 3f e6 e9 5f bf 1f 13 7d 3e
       -0.8995365 0.5542784 -0.87466276 0.24714325
0003b0 94 19 60 3f 8e 31 fe 3e de a8 09 bf d6 72 81 bf
       0.8753903 0.49647182 -0.53773296 -1.011317
0003c0 8a d9 37 3f 78 7d 83 bd 15 ce 1e 3f 9c 18 8b bf
       0.71816313 -0.06420416 0.62033206 -1.0866885
0003d0 d6 2d f6 3e 47 3c ea be 3e 07 06 3e dc 78 bc 3c
       0.48081845 -0.45749113 0.130887 0.023006849
0003e0 fc 1b a8 bf 1c 5d 49 3e 96 5e 00 bf 35 4c 04 3f
       -1.313354 0.19664425 -0.50144327 0.5167878
0003f0 03 ab 99 3f 84 4b c1 3e 1f 6b 7e bd f1 82 f5 be
       1.2005314 0.37752926 -0.062113877 -0.47951463

B0__29 f4 [1, 512]
000000 05 b7 2c be 98 ae 48 3f 1d 05 54 3d 79 5f 02 be
       -0.16866691 0.7839141 0.05176269 -0.12731732
000010 be 55 3b 3f df 2f 02 be e5 de 30 3e a8 88 38 3f
       0.7317771 -0.12713574 0.17272528 0.7208352
000020 40 f5 1e 3f 88 d3 3e be 73 33 13 3d 0a 03 e6 3e
       0.6209297 -0.1863538 0.035937738 0.44924194
000030 48 7e 4e 3e 66 8c 07 3e 6c 1e f6 3d 7b 93 21 39
       0.2016536 0.13237152 0.12017521 0.00015409097
000040 0f 1e 7d 3e c0 ea ae 3e 61 6b d6 3e e1 45 dc 3d
       0.24718498 0.34163475 0.418788 0.10755516
000050 01 95 f3 3e ff 00 af be 10 4d 11 be 58 9c 27 3e
       0.47574618 -0.34180447 -0.14189553 0.16368234
000060 76 e6 97 3e 06 51 fd 3e 2b 07 c3 3e 4e af 81 3e
       0.29668015 0.49475878 0.38091406 0.2532906
000070 ec 85 18 3e a0 20 8f 3e bf c3 01 3e 03 53 9b be
       0.14894837 0.27954578 0.12672327 -0.3033677
000080 cc d7 ff be e9 3e b5 3e 3a b7 9e 3e 45 22 26 be
       -0.49969327 0.3539956 0.30999166 -0.1622401
000090 81 12 2b 3e 2e 96 85 3e 07 b7 a7 3e 85 22 fc 3e
       0.16706277 0.2609114 0.32756826 0.49245086
0000a0 34 91 20 bf 7d d8 3a be 96 f5 1a be 45 26 e4 3e
       -0.6272156 -0.18246646 -0.15132746 0.44560447
0000b0 09 73 a2 3d 69 a7 02 be 64 b9 b8 bd 46 d0 8e 3d
       0.079320975 -0.12759174 -0.090197355 0.06973319
0000c0 7e 77 2a 3f d1 ee 31 3f 64 10 db 3c cf 8a 52 3f
       0.6658858 0.6950503 0.026741214 0.82243055
0000d0 69 96 a5 3c 85 5e c4 3e 43 88 18 3f ea 9c d0 3e
       0.020213323 0.38353363 0.5958292 0.40744716
0000e0 0a 25 f8 3e 22 85 46 3e 5a 11 35 3e fa ea ea be
       0.4846576 0.19386724 0.176824 -0.45882398
0000f0 3b 18 00 bf 14 cf 1f 3e 53 15 ee 3e fa c4 44 be
       -0.5003697 0.15606338 0.46500644 -0.19215766
000100 13 55 29 bc 68 df b4 3f cf 2e fd ba 7d 75 e4 3d
       -0.010335225 1.4130678 -0.0019316318 0.111552216
000110 8d 22 92 3f 5c 6a f3 bd 7b 9a 83 3e fa a0 5f 3f
       1.1416794 -0.11885521 0.25703797 0.87355006
000120 aa 22 eb 3e 93 a2 d4 bd 65 37 70 3b f7 1e af 3e
       0.45924884 -0.10382571 0.0036654111 0.34203312
000130 71 db 16 3e 6f d4 bb 3d b6 f3 de 3d 1b 1f a8 bc
       0.14732148 0.09171378 0.10886328 -0.020522645
000140 2f 6e 1a 3e 04 53 4e 3e 1d dd b0 3e ef bd a0 3e
       0.15081094 0.20148855 0.34543696 0.31394908
000150 10 31 da 3e a0 f3 8e be 81 f0 b7 bc c8 68 78 3e
       0.42615557 -0.27920246 -0.022453548 0.24258721
000160 ce 18 6b 3e 86 48 9a 3e 6a 3d cc 3e 0c c5 a0 3e
       0.22958681 0.30133456 0.39890605 0.31400335
000170 40 21 70 3e df 6c 67 3e ee f9 eb 3d 4c 82 9a be
       0.23450184 0.22600125 0.1152228 -0.30177534
000180 7e f2 f2 be dc 57 1d 3e 48 a7 6f 3e 7b c9 d6 bd
       -0.47450632 0.15365547 0.23403656 -0.10487648
000190 52 74 95 3e 4f 32 74 3e e6 49 93 3e ed a9 12 3f
       0.29190308 0.23847316 0.28767318 0.57290536
0001a0 3d e8 0a bf 62 80 77 bd 80 a8 06 bb 80 12 b0 3e
       -0.5426062 -0.06042517 -0.0020547211 0.34389114
0001b0 ee 01 8c 3d ec 59 0f be c5 dc b6 3d 80 20 1f 3c
       0.068363056 -0.13999146 0.08928827 0.009712338
0001c0 5a 27 ad 3e aa 67 3d 3f f2 2b 55 3d 21 fa 86 3f
       0.33819085 0.73986304 0.052043863 1.0545083
0001d0 bc 52 3a 3e 8f af 44 3e 27 5d 9d 3e 15 ad ae 3e
       0.18195623 0.19207595 0.30735132 0.34116426
0001e0 0d 70 e4 3e b3 45 d3 bd 7d 97 53 3e af 2d 14 bf
       0.44616738 -0.103160284 0.20663257 -0.5788221
0001f0 55 c8 c4 be 76 15 43 3e 05 c5 c8 3e 3a 23 78 be
       -0.3843409 0.19051155 0.39212814 -0.24232188
000200 1a 67 78 3f e9 44 14 3f bc 01 1b 3f 30 5e 43 3f
       0.9703232 0.5791765 0.6054952 0.76315594
000210 c5 06 26 3f cf 38 92 3f 0b d5 63 3f 89 f0 57 3e
       0.6485408 1.1423587 0.8899695 0.2108785
000220 88 98 15 3f 26 3c 56 3f 70 e1 82 3f 23 98 47 3f
       0.5843587 0.8368553 1.0225048 0.7796652
000230 20 a1 45 3f 5b e3 46 3e 7f b9 7f 3f 0f 7f 13 3f
       0.7719898 0.19422667 0.9989242 0.5761575
000240 10 c6 19 3f 9a cd 9e 3f f0 11 8b 3f 96 e8 5d 3f
       0.60067844 1.2406495 1.0864849 0.8668302
000250 88 4b 51 3f 1d 96 2a 3f e7 28 49 3f 42 3d 6a 3f
       0.81755877 0.66635305 0.7857804 0.9149972
000260 a9 85 64 3f bf 21 2f 3f 85 b9 69 3f 58 bc 4b 3f
       0.8926645 0.6841087 0.91298705 0.79584265
000270 25 62 15 3f 6c 80 8e 3f c4 67 43 3f 01 9e 2f 3f
       0.5835288 1.1132941 0.7633021 0.6860047
000280 56 df 5a 3f 57 90 21 3f 37 e5 0c 3f 31 6b e9 3e
       0.85497034 0.6311087 0.55037254 0.45589593
000290 b8 ac 39 3f 4a 64 44 3f ca 26 0b 3f a6 5e 57 3f
       0.7252917 0.7671553 0.5435606 0.841288
0002a0 c7 6f 33 3f 94 95 51 3f b7 c9 36 3f 4b 29 3a 3f
       0.70092434 0.81868863 0.7140154 0.7271926
0002b0 45 99 2c 3f d5 0b 6f 3f 81 1a 9c 3f c6 79 c5 3e
       0.6742137 0.9337743 1.2195588 0.38569468
0002c0 14 e0 3b 3f 0e 42 43 3f fe cb 5b 3f 0c 62 04 3f
       0.7338879 0.76272666 0.8585814 0.5171211
0002d0 13 e0 43 3f 0a 58 2f 3f 1a 73 6a 3f 5d ab 36 3f
       0.76513785 0.6849371 0.9158188 0.7135523
0002e0 1c db 22 3f 3c 73 59 3f 5f 4b 66 3f 5a be 60 3f
       0.63615584 0.8494146 0.8995876 0.87790453
0002f0 e8 10 22 3f 38 a0 98 3f 39 27 61 3f 67 8e 57 3f
       0.63307047 1.1923895 0.87950474 0.84201664
000300 64 80 32 3e 52 8a a3 be 9b b8 bb 3e f5 c4 99 be
       0.1743179 -0.31941468 0.3666428 -0.3003308
000310 09 fe ae be fd 2c 1b 3d a4 2c 7c bd 11 0a aa be
       -0.34178188 0.0378847 -0.06156601 -0.33210805
000320 29 ca 4a 3e 75 21 e6 bc a1 a0 96 be e3 f9 74 bc
       0.1980368 -0.028092125 -0.29419425 -0.014952156
000330 41 40 d4 3e 8a 2b 56 3e 50 21 76 be ee 01 26 be
       0.41455272 0.20915046 -0.24036145 -0.16211674
000340 7e a0 09 bf f5 5a 80 be 86 60 7b 3e 88 1e e1 bd
       -0.53760517 -0.25069395 0.2454854 -0.109921515
000350 fc d7 89 bd e0 ec 52 3d 4e 6b 5b 3e e8 d9 8d bd
       -0.06730649 0.051495433 0.21427652 -0.06926328
000360 63 2f c9 bd eb f7 73 3e 6c 6f e5 bd 7c 77 b3 3d
       -0.098234914 0.23825042 -0.11202893 0.08763024
000370 73 21 02 bf 9a d2 2e bd 8f 70 38 3e 77 ad 2d 3d
       -0.5083229 -0.042681314 0.18011688 0.042401757
000380 cc 94 4d 3c ae 44 e2 be 5b b3 8f be 98 37 3d 3d
       0.012547683 -0.44193023 -0.28066525 0.046195596
000390 cb 33 f2 bd 3c 31 ab be b0 61 b6 bd c3 1a 4b 3e
       -0.11826285 -0.33436 -0.08905351 0.19834428
0003a0 40 1b 20 3e 74 ab c1 3c c1 60 31 be 3d 8c 77 be
       0.15635395 0.023641326 -0.17322065 -0.2417459
0003b0 f2 50 d1 be 2b 8e f7 be 84 fe ee 3d b8 0b 6e 3e
       -0.4088207 -0.48350653 0.11669639 0.23246658
0003c0 26 99 a8 be 14 88 86 be 72 50 7f bd 62 d0 1c 3e
       -0.32929343 -0.26275694 -0.062332578 0.15313867
0003d0 3e c0 9b 3c 8a 25 8b 3e 0e 90 91 be ac 9e a3 bd
       0.019012567 0.27177078 -0.28430218 -0.07989249
0003e0 06 e7 ae 3e 14 9b 83 3d 01 68 1e 3e ae 67 7e 3b
       0.34160632 0.06426063 0.15469362 0.0038819122
0003f0 95 b0 09 be 64 98 46 3d 93 f0 28 bc b9 b5 2b 3c
       -0.13446267 0.048485175 -0.010311264 0.010480338
